…
json_data_train='dataset_splits/compositional/train.json', 
json_data_val='dataset_splits/compositional/validation.json', 
json_file_labels='dataset_splits/compositional/labels.json', log_freq=10, logdir='./logs', 
logname='exp', lr=0.01, lr_steps=[24, 35, 45], model='coord', momentum=0.9, num_boxes=4, 
num_classes=174, num_frames=4, print_freq=20, restore_custom=None, restore_i3d=None, 
resume='', root_frames='dataset/frames', shot=5, size=224, start_epoch=None, 
tracked_boxes='dataset/bounding_box_annotations.json', weight_decay=0.0001, workers=8)
DataParallel(
  (module): VideoModelCoord(
    (coord_to_feature): Sequential(
      (0): Linear(in_features=4, out_features=256, bias=False)
      (1): BatchNorm1d(256, eps=1e-05, momentum=0.1, affine=True, track_running_stats=True)
      (2): ReLU(inplace=True)
      (3): Linear(in_features=256, out_features=512, bias=False)
      (4): BatchNorm1d(512, eps=1e-05, momentum=0.1, affine=True, track_running_stats=True)
      (5): ReLU()
    )
    (spatial_node_fusion): Sequential(
      (0): Linear(in_features=1024, out_features=512, bias=False)
      (1): BatchNorm1d(512, eps=1e-05, momentum=0.1, affine=True, track_running_stats=True)
      (2): ReLU(inplace=True)
      (3): Linear(in_features=512, out_features=512, bias=False)
      (4): BatchNorm1d(512, eps=1e-05, momentum=0.1, affine=True, track_running_stats=True)
      (5): ReLU()
    )
    (box_feature_fusion): Sequential(
      (0): Linear(in_features=1024, out_features=512, bias=False)
      (1): BatchNorm1d(512, eps=1e-05, momentum=0.1, affine=True, track_running_stats=True)
      (2): ReLU(inplace=True)
      (3): Linear(in_features=512, out_features=512, bias=False)
      (4): BatchNorm1d(512, eps=1e-05, momentum=0.1, affine=True, track_running_stats=True)
      (5): ReLU()
    )
    (classifier): Sequential(
      (0): Linear(in_features=512, out_features=512, bias=True)
      (1): ReLU(inplace=True)
      (2): Linear(in_features=512, out_features=512, bias=True)
      (3): ReLU(inplace=True)
      (4): Linear(in_features=512, out_features=174, bias=True)
    )
  )
)
... Loading box annotations might take a minute ...
Loading label strings
create training loader
Loading label strings
create validation loader
training, start a logger
########################
logging outputs to  ./logs/exp
########################
Epoch[0](Train):	Time 250.973	Loss 4.0865	Acc1 12.3	Acc5 30.3
Epoch[0](Test):	Time 246.288	Loss 3.5845	Acc1 18.0	Acc5 42.4
…
